model/env_model.tflite (tflite, 11608 bytes, 5 tensors)

sequential_8/dense_25/BiasAdd/ReadVariableOp f4 [32]
0	0xbd8dca66	-0.0692337
1	0xbdd10b68	-0.10207254
2	0x3e1b4109	0.15161528
3	0x3e86052e	0.26175827
4	0x3e49d079	0.19708432
5	0xbd695196	-0.056962572
6	0xbd0f0440	-0.034916162
7	0x3e5aebcd	0.21379013
8	0x3dfd82fc	0.12378499
9	0xbc494fe4	-0.012287114
10	0xbaff0bc9	-0.0019458468
11	0xbc3f48f3	-0.011675107
12	0xbd416375	-0.04721399
13	0x3e3d7672	0.18502215
14	0xbdb76432	-0.089546576
15	0xbd164a29	-0.03669182
16	0xbd0b1d75	-0.03396364
17	0x3e8b63ef	0.2722468
18	0x3bf8594e	0.0075790053
19	0xbda1487f	-0.07875156
20	0x3e485191	0.19562365
21	0x3e023140	0.127141
22	0xbe00cb6c	-0.125776
23	0xbd97f7b8	-0.074202955
24	0xbbd62eed	-0.0065363557
25	0xbe0929f0	-0.13394904
26	0x3e49bfbc	0.19702047
27	0xbcee5446	-0.02909292
28	0xbc9fe38a	-0.019517679
29	0x3e631401	0.221756
30	0xbd699b55	-0.0570329
31	0xbdc875bb	-0.0978808

sequential_8/dense_24/BiasAdd/ReadVariableOp f4 [64]
0	0xbd4cbb8b	-0.049983542
1	0xbd5e5fbb	-0.054290514
2	0xbe0c2e06	-0.13689432
3	0x3e498a24	0.19681603
4	0xbd073919	-0.033013437
5	0x3e19b1f2	0.15009287
6	0xbdd322db	-0.103093825
7	0xbdb4e667	-0.08833008
8	0x3dfb10ab	0.122590385
9	0x3e99f72f	0.300714
10	0xbdc7b502	-0.097513214
11	0xbdb4c9d9	-0.08827562
12	0xbde2781a	-0.11058064
13	0xbda5fed6	-0.08105247
14	0xbda7b6fc	-0.081891984
15	0x3e7a8d07	0.2446786
16	0xbe309882	-0.17245677
17	0xbd3f0e18	-0.0466443
18	0xbe088697	-0.13332592
19	0xbc484d1b	-0.012225415
20	0xbd825e86	-0.06365685
21	0xbd806e63	-0.062710546
22	0xbded47e9	-0.115859814
23	0xbe10ba68	-0.14133608
24	0x3e6320f1	0.22180535
25	0xbe00143e	-0.12507722
26	0xbbd88372	-0.0066074664
27	0xbbf36fc3	-0.0074290945
28	0xbd2d74f5	-0.042347867
29	0xbda2a449	-0.07941491
30	0x3e6ae633	0.22939377
31	0xbcfe6eb2	-0.031058643
32	0xbda9b73c	-0.08286902
33	0xbd139958	-0.036034912
34	0xbcf0e299	-0.029404925
35	0xbcb2b0a1	-0.021812739
36	0xbdbe00ae	-0.092774734
37	0xbe3d28b8	-0.18472564
38	0xbe2b74c5	-0.16743763
39	0x3d1ae12d	0.0378124
40	0x3e4710b4	0.19439965
41	0x3e7c0d9f	0.24614571
42	0xbe1ebc53	-0.15501527
43	0xbd9e1da5	-0.07720498
44	0xbd4702f4	-0.0485868
45	0xbd85a50d	-0.065256216
46	0x3dc46bc7	0.095908694
47	0x3e5c6e73	0.21526508
48	0xbd1ed063	-0.03877295
49	0x3c70476f	0.014665469
50	0xbcedbc18	-0.029020354
51	0xbd841c40	-0.06450701
52	0x3aa5a160	0.0012636594
53	0x3e5ee755	0.21767934
54	0x3df9ba28	0.121937096
55	0x3e87a127	0.26490137
56	0xbd2674a6	-0.04063859
57	0x3d9d1887	0.07670694
58	0xbc92c680	-0.017916918
59	0xbd807783	-0.06272795
60	0x3e62a0fe	0.22131726
61	0x3e83d61c	0.2574929
62	0xbde9f6b2	-0.114240065
63	0x3d491f0c	0.049101874

sequential_8/dense_24/MatMul f4 [64, 3]
0	0x3e57e4e8	0.21083415
1	0x3d511d74	0.05105348
2	0x3e2cf765	0.16891249
3	0x3e27e7c4	0.16397005
4	0xbe741087	-0.2383443
5	0xbe61d374	-0.22053319
6	0xbeaa810c	-0.3330158
7	0x3eaafd4d	0.33396378
8	0xbd11ba4f	-0.03557807
9	0x3ce11ce2	0.027479593
10	0xbd8594b0	-0.065225005
11	0xbd864b11	-0.065572865
12	0x3aad88ba	0.00132396
13	0x3affb549	0.0019508983
14	0x3c779df3	0.015113342
15	0xbd93bd50	-0.07213843
16	0xbdf95d58	-0.12176007
17	0xbe59437f	-0.21217154
18	0xbdd935a7	-0.106059365
19	0xbcab0a39	-0.020878898
20	0x3ec342fb	0.3813704
21	0x3e9739ca	0.29536277
22	0xbe4ccab4	-0.199992
23	0xbe32bc35	-0.17454608
24	0x3bed9bd6	0.007251243
25	0xbe3fa003	-0.18713383
26	0x3d95d058	0.07315129
27	0xbe1da4d7	-0.15394913
28	0x3d13171e	0.03591072
29	0xbe221789	-0.1582929
30	0xbdf4163b	-0.119183026
31	0xbda9441e	-0.082649454
32	0x3f0528ef	0.52015585
33	0x3edf85a7	0.43656656
34	0xbdf6683e	-0.12031601
35	0xbd218bb3	-0.03943987
36	0xbed38d7d	-0.41318884
37	0x3e9f4d41	0.31113628
38	0xb9eb98c7	-0.0004493652
39	0xbdb90469	-0.09034044
40	0xbd8d8e9f	-0.069119684
41	0x3ed92ff5	0.424194
42	0x3e720c3d	0.23637481
43	0xbb860355	-0.0040897527
44	0xbbd4dd52	-0.00649611
45	0xbe084929	-0.13309158
46	0xbd379f91	-0.04482991
47	0xbe1a77af	-0.15084718
48	0xbe08a73d	-0.13345046
49	0x3eb3101f	0.34973237
50	0xbaa9c225	-0.0012951536
51	0xbd7775a3	-0.06041492
52	0xbcbf1a65	-0.023328016
53	0x3dea8f01	0.11453057
54	0xbd52874a	-0.051398553
55	0x3e59f3f4	0.21284467
56	0xbe9608c3	-0.2930356
57	0xbeb05481	-0.3443947
58	0xbd167784	-0.036735073
59	0x3eb509f7	0.35359165
60	0xbccaeaad	-0.024770105
61	0xbd37aa65	-0.044840235
62	0x3e843968	0.25825047
63	0xbd87b02d	-0.066254
64	0xbd5ca9f6	-0.053873025
65	0x3ea99a06	0.33125323
66	0xbe11027d	-0.14161105
67	0x3e6533ba	0.22383013
68	0xbe3b6cf8	-0.18303287
69	0x3e9660c4	0.293707
70	0xbda3177a	-0.07963462
71	0xbeb0eb3c	-0.3455447
72	0xbe84fc3e	-0.25973696
73	0x3e0f3ae6	0.13987312
74	0xbe6194ca	-0.22029415
75	0xbbe9d656	-0.0071361465
76	0x3e97e83f	0.29669377
77	0x3d2c81f5	0.042116124
78	0x3c41672d	0.011804384
79	0xbeab3fc5	-0.3344709
80	0x3eaa75ad	0.33292904
81	0x3dd5fba3	0.104483865
82	0xbe670c9d	-0.22563405
83	0xbda4062b	-0.08008989
84	0x3e215f36	0.15758976
85	0x3e251a90	0.16123414
86	0xbe109918	-0.141209
87	0x3c88a0d0	0.016678244
88	0x3ead8383	0.33889398
89	0x3df90699	0.121594615
90	0xbdc442a2	-0.09583022
91	0xbe487756	-0.19576773
92	0xbe41d92a	-0.18930498
93	0x3e7426dc	0.23842949
94	0xbe0c7161	-0.13715126
95	0xbcec5a48	-0.028851643
96	0x3e9f729c	0.31142128
97	0x3d58c5ef	0.05292314
98	0xbe83081b	-0.2559212
99	0x3e740416	0.23829684
100	0xbd99446c	-0.074837536
101	0x3e6fc2b7	0.23414122
102	0x3e0eca7e	0.13944432
103	0x3db0bb0b	0.086294256
104	0xbec3bc5b	-0.3822964
105	0x3d8e61e7	0.06952267
106	0x3d033274	0.032030538
107	0x3eb72e8d	0.35777703
108	0xbea38075	-0.31933942
109	0x3e0e1264	0.13874203
110	0x3ea2b710	0.3178029
111	0xbd8704e8	-0.06592733
112	0x3e865026	0.26233023
113	0xbe25800b	-0.16162126
114	0xbea17f94	-0.31542647
115	0x3ea0c425	0.31399646
116	0xbdaea97d	-0.08528421
117	0x3e35212e	0.17688438
118	0x3dab8b47	0.083761744
119	0xbeebc449	-0.4604819
120	0xbe2ab87e	-0.1667194
121	0xbe2cf135	-0.16888888
122	0xbe4236c8	-0.1896621
123	0xbe03dcfa	-0.12877265
124	0xbd09972f	-0.033591446
125	0xbe2c9a45	-0.16855724
126	0xbe615b85	-0.22007568
127	0x3ea60cae	0.3243155
128	0xbe32d48f	-0.17463897
129	0xbdbe5430	-0.09293401
130	0xbd454842	-0.048164614
131	0x3ebb289e	0.36554426
132	0xbe9ecb67	-0.3101456
133	0x3e2ceb4b	0.16886632
134	0xbd0911af	-0.03346413
135	0x3e6cd4b0	0.23128009
136	0x3e14458a	0.14479652
137	0xbea7a0e0	-0.32739925
138	0xbdd4125a	-0.10355063
139	0xbca939c6	-0.020657431
140	0xbdf2b130	-0.11850202
141	0xbe529e46	-0.20568189
142	0xbe12986c	-0.14315957
143	0xbe510484	-0.20411879
144	0x3e99de94	0.30052626
145	0xbdc676b8	-0.096906126
146	0x3d3cca66	0.04609146
147	0x3ec610cf	0.386847
148	0xbe90872c	-0.28228128
149	0x3e7083aa	0.23487726
150	0x3e9bcf3d	0.30431548
151	0x3de2c2fb	0.11072346
152	0xbeedd8ac	-0.4645437
153	0xbe92e359	-0.28689077
154	0x3e3acd02	0.18242267
155	0x3d390619	0.04517183
156	0x3d12841f	0.03577053
157	0xbe798525	-0.24367197
158	0x3dfad432	0.12247504
159	0xbea2fe5c	-0.31834686
160	0xbe6a3b4b	-0.22874181
161	0xbe816f88	-0.25280404
162	0x3dcce798	0.100051105
163	0xbe9d0318	-0.30666423
164	0x3c5cfe7c	0.013488408
165	0xbdad188c	-0.084519476
166	0xbe3f2dc9	-0.1866981
167	0xbea6fc5c	-0.3261441
168	0x3eb89258	0.3604915
169	0xbe0db1eb	-0.13837402
170	0x3d060cb9	0.032726977
171	0xbda059fa	-0.07829662
172	0x3e1f2333	0.15540771
173	0xbe316a77	-0.1732577
174	0x3e5de934	0.21670991
175	0xbe6c834c	-0.23096961
176	0x3dfe0fcd	0.124053575
177	0xbd7bbef2	-0.061461397
178	0xbd7de704	-0.06198789
179	0x3e9c0a58	0.30476642
180	0xbe73b074	-0.2379778
181	0xbe367431	-0.17817761
182	0xbe8590fb	-0.26087174
183	0xbe8d8f02	-0.2764817
184	0xbe7f66ca	-0.24941555
185	0x3e34a7fa	0.17642203
186	0xbe66a6d9	-0.22524585
187	0xbe56b6d2	-0.20968178
188	0x3eed44b3	0.46341476
189	0x3e229452	0.15876892
190	0x3e332424	0.17494255
191	0x3e7d9a8a	0.24765983

sequential_8/dense_25/MatMul f4 [32, 64]
0	0xbe20e241	-0.15711309
1	0x3c7d1273	0.015446293
2	0x3dc6c7d2	0.097060814
3	0x3e0776fc	0.13228983
4	0xbe2cef91	-0.16888262
5	0x3e4d2e6b	0.20037238
6	0x3e8dcaec	0.2769388
7	0x3e8d19f2	0.27558857
8	0x3dcd0747	0.10011154
9	0x3db49c9b	0.088189326
10	0x3d06bd3a	0.032895304
11	0x3de43a0b	0.11143883
12	0x3eb5c905	0.35504928
13	0xbdc0313e	-0.09384392
14	0x3b9191c0	0.0044424236
15	0xbdd4b27d	-0.103856064
16	0x3e1a829e	0.15088889
17	0xbdf8435a	-0.12122221
18	0x3e8835fd	0.2660369
19	0xbe07c27c	-0.13257784
20	0xbe2530d6	-0.1613191
21	0xbdc33ab8	-0.09532684
22	0x3d702005	0.058624286
23	0x3ead5210	0.3385167
24	0xbe555def	-0.20836614
25	0x3d267f5b	0.0406488
26	0xbe4861db	-0.19568579
27	0x3e1cda07	0.15317546
28	0x3d9c676f	0.07636916
29	0x3e9ac114	0.30225432
30	0xbd2da290	-0.04239136
31	0x3e7f3d3b	0.24925701
32	0x3d84d367	0.06485634
33	0x3d234afc	0.039866433
34	0x3dffc9db	0.12489673
35	0x3e76c6d3	0.24099283
36	0x3d980686	0.07423119
37	0x3e8c7db2	0.27439648
38	0x3ebb9b1c	0.36641777
39	0x3e97d824	0.2965709
40	0xbe05047c	-0.12989992
41	0xbdda7722	-0.10667254
42	0x3e1a4384	0.15064818
43	0xbe0b2c1b	-0.13591044
44	0x3d6247ec	0.05524437
45	0x3da63b5b	0.0811679
46	0xbb9fb53e	-0.0048739007
47	0xbdbd66aa	-0.09248097
48	0x3ea3e0a4	0.32007325
49	0x3e8f776a	0.28020793
50	0x3e14b0f1	0.14520623
51	0x3e045d3a	0.12926188
52	0xbdaa4bd4	-0.08315244
53	0xbe8ed574	-0.27897227
54	0xbdb819dc	-0.08989307
55	0x3de0d078	0.10977262
56	0x3e8391a7	0.2569706
57	0x3bfcb6a0	0.0077122003
58	0x3e475fe4	0.19470173
59	0xbdfc626c	-0.1232346
60	0xbe547719	-0.20748557
61	0xbe04d577	-0.12972055
62	0x3e262d53	0.16228227
63	0x3e81a3a4	0.2532016
64	0x3e8bfd99	0.27341917
65	0x3e922de0	0.28550625
66	0x3eb5a652	0.35478455
67	0xbd821e8e	-0.06353484
68	0xb9e2f2e8	-0.00043287058
69	0xbe0922f4	-0.1339224
70	0x3e4ee030	0.20202708
71	0xbd25ef9e	-0.04051172
72	0xbbdc728f	-0.0067275236
73	0xbe964463	-0.2934905
74	0x3e545831	0.20736767
75	0x3eb283b4	0.34866107
76	0x3e9d7d08	0.30759454
77	0x3d9f8b2b	0.07790216
78	0x3e81bfa9	0.25341538
79	0x3c996699	0.01872568
80	0xbd2fcacf	-0.042918023
81	0xbdff6d05	-0.12471966
82	0xbd50e8fc	-0.05100344
83	0xbd34c850	-0.044136345
84	0xbc689b68	-0.014197208
85	0x3ddc7ee0	0.10766387
86	0x3e996642	0.2996083
87	0x3ec38a4a	0.38191444
88	0xbde7269a	-0.112866595
89	0xbd1c8ca6	-0.03822007
90	0xbbf0b94f	-0.0073463093
91	0x3d8e6c81	0.06954289
92	0xbdf7eaa9	-0.12105305
93	0x3d49c7af	0.0492627
94	0x3cb24951	0.021763476
95	0x3ea0e538	0.3142488
96	0x3e1ad2c0	0.15119457
97	0xbdcfee62	-0.1015289
98	0x3ea5cbd2	0.32382065
99	0x3e49f529	0.19722427
100	0x3e6f92b6	0.2339581
101	0x3cba0e62	0.022711936
102	0xbda6e500	-0.08149147
103	0x3db1b54c	0.08677158
104	0x3e0f64c2	0.1400328
105	0xbdcaeeea	-0.099088505
106	0xbd9ae87e	-0.075638756
107	0x3e6cea76	0.23136315
108	0x3e12eb18	0.14347494
109	0x3e114647	0.14186965
110	0xbe26be1f	-0.16283463
111	0x3d455c78	0.04818389
112	0x3e207fcc	0.1567375
113	0x3d672745	0.056433935
114	0x3e05edd7	0.1307901
115	0x3ec9a268	0.3938172
116	0xbdfa9819	-0.122360416
117	0x3d6a44d1	0.057194535
118	0x3e4ef4db	0.20210592
119	0x3d042011	0.032257143
120	0xbd0f590a	-0.034997024
121	0x3e8677c7	0.26263258
122	0x3dd33667	0.10313111
123	0x3ed96ae4	0.42464364
124	0xbdb2794e	-0.08714543
125	0xbcc5b34d	-0.024133349
126	0xbd251d72	-0.040311284
127	0x3e86462c	0.26225412
128	0xbe5819c5	-0.2110358
129	0xbe3d9ec2	-0.18517593
130	0xbd80bb0a	-0.06285675
131	0x3d17f9ca	0.03710345
132	0xbe778784	-0.24172789
133	0x3e2c2a83	0.16813092
134	0xbe9ca737	-0.30596325
135	0xbe463ef9	-0.1935996
136	0x3e79455e	0.24342868
137	0x3ecd8a7c	0.40144718
138	0xbdbd6bbf	-0.092490666
139	0xbb8afda5	-0.0042416626
140	0xbe59a69d	-0.21254964
141	0xbe6c4ec8	-0.23076928
142	0xbe9c6808	-0.3054812
143	0xbce6b5cc	-0.02816286
144	0xbe668d1c	-0.22514766
145	0x3da0a2e6	0.078435704
146	0xbcb13b03	-0.021634584
147	0xbe1817f9	-0.14852895
148	0x3da1feac	0.07909903
149	0xbe7c6c29	-0.24650635
150	0xbe843baa	-0.2582677
151	0xbb3d59f8	-0.0028892737
152	0x3dd52ed6	0.10409324
153	0xbd6eeff3	-0.058334302
154	0x3cb77351	0.022393854
155	0xbddf27e1	-0.10896278
156	0xbe334fb1	-0.17510869
157	0x3dd110a3	0.10208251
158	0xbe07c75d	-0.13259645
159	0x3e1eb405	0.1549836
160	0x3c62e101	0.01384759
161	0x3e079e36	0.13243946
162	0xbcc97a64	-0.024594493
163	0x3ce905a8	0.02844508
164	0xbd66db35	-0.056361396
165	0x3dcf9806	0.10136418
166	0xbe056886	-0.13028154
167	0xbdf5b1ce	-0.11996804
168	0xbd0ddd2a	-0.034634747
169	0x3e90e0fc	0.2829665
170	0x3d8aeea9	0.06783802
171	0xbe287ff3	-0.16455059
172	0xbc81437b	-0.015779248
173	0xbe75965f	-0.23983143
174	0xbbc64f8b	-0.0060519627
175	0x3d7c3ce3	0.061581504
176	0xbe29d298	-0.16584241
177	0xbc0eb7ca	-0.008710811
178	0x3d7c6887	0.061623123
179	0xbe40fbd5	-0.18846066
180	0x3da6304a	0.08114679
181	0x3e9dc64b	0.30815348
182	0x3d9638d3	0.07335057
183	0xbad11e33	-0.0015954435
184	0xbd2f99ba	-0.042871214
185	0x3d294737	0.04132768
186	0xbe5c7b8b	-0.21531503
187	0xbe7810ed	-0.24225207
188	0xbdf1aa2f	-0.11800038
189	0x3abcc31d	0.001440141
190	0x3d6a63ea	0.05722419
191	0x3d2ec51e	0.042668454
192	0xbd32e4ec	-0.04367535
193	0x3d3660e0	0.04452598
194	0xbeafaae4	-0.34310067
195	0x3e828efb	0.2549971
196	0xbc3b151c	-0.011418607
197	0x3e207f5b	0.15673582
198	0xbe3a3892	-0.18185642
199	0x3e151779	0.14559735
200	0xbdb07c18	-0.08617419
201	0x3ec3914d	0.38196793
202	0xbde3bcc0	-0.111199856
203	0xbe030777	-0.12795816
204	0xbe7e572e	-0.24837944
205	0xbe9394e0	-0.2882452
206	0x3dc1b81b	0.094589435
207	0x3cd466d0	0.025927931
208	0xba8c3103	-0.0010695759
209	0xbdb62c68	-0.088951886
210	0x3c80726b	0.015679559
211	0xbe4c6fe9	-0.19964565
212	0xbc1962e0	-0.009361953
213	0xbdb4aedf	-0.088224165
214	0xbd187857	-0.03722414
215	0xbe20b799	-0.15695037
216	0x3d9125c8	0.07087284
217	0xbe5b4847	-0.2141429
218	0xbc8d2146	-0.01722778
219	0xbc07496b	-0.00825725
220	0x3da41b92	0.08013071
221	0x3e43069b	0.19045489
222	0x3eb088f8	0.344795
223	0xbdf3da22	-0.1190684
224	0xbe5d6360	-0.2161994
225	0xbe8a91ad	-0.27064267
226	0xbd06cd83	-0.032910835
227	0x3e3a475a	0.18191281
228	0x3d6bc9bc	0.057565436
229	0xbe8c6699	-0.27422026
230	0xbea25c61	-0.31711105
231	0x3d1e2872	0.03861279
232	0x3e91d1f8	0.28480506
233	0x3e98c153	0.29834995
234	0xbd0ca0b2	-0.03433294
235	0xbe8f90f2	-0.28040272
236	0xbe8ba609	-0.27275112
237	0xbc84ca6f	-0.01620981
238	0xbe056ff0	-0.13030982
239	0xbd748394	-0.059695795
240	0xbe682999	-0.22672118
241	0xbe83eed4	-0.2576815
242	0x3df551a5	0.11978463
243	0xbe1491f5	-0.14508803
244	0x3e695125	0.2278486
245	0x3e9a601f	0.3015146
246	0xbe0b04cb	-0.13576047
247	0x3e9a370b	0.3012012
248	0xbebb2a07	-0.36555502
249	0x3e41b8cb	0.18918149
250	0xbe8f75a1	-0.2801943
251	0xbe9c7b1c	-0.30562675
252	0x3cc0c8dc	0.023533277
253	0x3e9488f7	0.29010746
254	0xbe18bd0d	-0.14915867
255	0x3e5e169b	0.21688311

sequential_8/dense_26/MatMul f4 [1, 32]
0	0xbf11cf7a	-0.5695721
1	0xbeba2d79	-0.36362818
2	0x3ec2d961	0.38056472
3	0x3e7a25d4	0.24428493
4	0x3f1822dd	0.594282
5	0xbe87c2ec	-0.265159
6	0xbcb8e26f	-0.02256891
7	0x3f0ac633	0.5420868
8	0x3e40af06	0.18816766
9	0xbedd5ba0	-0.43233967
10	0xbead5bfd	-0.33859244
11	0xbb74883d	-0.003731265
12	0x3e137af0	0.14402366
13	0x3f073dbd	0.5282858
14	0xbeec0ffc	-0.46105945
15	0xbf17853a	-0.5918766
16	0xbeb6036e	-0.35549492
17	0x3e80deba	0.25169927
18	0x3ec8c4fe	0.39212793
19	0xbf16a7c9	-0.5884977
20	0x3ea51d13	0.32248744
21	0x3ecb452c	0.3970121
22	0xbed1611f	-0.4089441
23	0xbf13c945	-0.5772899
24	0xbeebab72	-0.4602924
25	0xbf2e1785	-0.6800464
26	0x3ede09f4	0.4336697
27	0x3ea4f4ea	0.32218105
28	0xbea78cdd	-0.32724658
29	0x3ee16729	0.44024017
30	0xbeb6d443	-0.35708818
31	0xbe8f2015	-0.27954164
